…
[1219365:MainThread](2026-01-11 19:40:03,379) INFO - qlib.HIST - [pytorch_hist.py:86] - HIST parameters setting:
d_feat : 6
hidden_size : 64
num_layers : 2
dropout : 0.0
n_epochs : 200
lr : 0.0001
metric : ic
early_stop : 20
optimizer : adam
loss_type : mse
base_model : LSTM
model_path : None
stock2concept : /home/ethan/qlib/examples/benchmarks/HIST/qlib_csi300_stock2concept.npy
stock_index : /home/ethan/qlib/examples/benchmarks/HIST/qlib_csi300_stock_index.npy
use_GPU : 0
seed : None
[1219365:MainThread](2026-01-11 19:40:03,407) INFO - qlib.HIST - [pytorch_hist.py:134] - model:
HISTModel(
  (rnn): LSTM(6, 64, num_layers=2, batch_first=True)
  (fc_es): Linear(in_features=64, out_features=64, bias=True)
  (fc_is): Linear(in_features=64, out_features=64, bias=True)
  (fc_es_middle): Linear(in_features=64, out_features=64, bias=True)
  (fc_is_middle): Linear(in_features=64, out_features=64, bias=True)
  (fc_es_fore): Linear(in_features=64, out_features=64, bias=True)
  (fc_is_fore): Linear(in_features=64, out_features=64, bias=True)
  (fc_indi_fore): Linear(in_features=64, out_features=64, bias=True)
  (fc_es_back): Linear(in_features=64, out_features=64, bias=True)
  (fc_is_back): Linear(in_features=64, out_features=64, bias=True)
  (fc_indi): Linear(in_features=64, out_features=64, bias=True)
  (leaky_relu): LeakyReLU(negative_slope=0.01)
  (softmax_s2t): Softmax(dim=0)
  (softmax_t2s): Softmax(dim=1)
  (fc_out_es): Linear(in_features=64, out_features=1, bias=True)
  (fc_out_is): Linear(in_features=64, out_features=1, bias=True)
  (fc_out_indi): Linear(in_features=64, out_features=1, bias=True)
  (fc_out): Linear(in_features=64, out_features=1, bias=True)
)
[1219365:MainThread](2026-01-11 19:40:03,407) INFO - qlib.HIST - [pytorch_hist.py:135] - model size: 0.0892 MB
2026-01-11 19:40:04.819 | INFO     | __main__:train_single_fold:569 - Training hist_360 model (GPU=0)...
[1219365:MainThread](2026-01-11 19:40:05,803) INFO - qlib.HIST - [pytorch_hist.py:299] - Loading pretrained model Done...
[1219365:MainThread](2026-01-11 19:40:05,804) INFO - qlib.HIST - [pytorch_hist.py:302] - training...
…
